cnn_model.pt (torch, 39511 bytes, 6 tensors)

weight f4 [8, 1, 3, 3]
0	0x3e25448d	0.16139431
1	0x3f0eb36b	0.5574252
2	0x3f07112b	0.5276057
3	0x3de98cc7	0.11403804
4	0x3e94debe	0.2907619
5	0x3f18c5f8	0.59677076
6	0xbdb840a3	-0.089967035
7	0x3da33af4	0.07970229
8	0xbace2b83	-0.001572952
9	0xbdad2cdc	-0.08455822
10	0x3f2742ef	0.6533651
11	0x3e7ce724	0.24697548
12	0x3f9eff28	1.2421618
13	0x3f376fad	0.7165478
14	0xbd2ef307	-0.042712238
15	0x3ed42011	0.41430715
16	0xbf235c79	-0.6381298
17	0xbeae2fb2	-0.34020764
18	0xbed55d9a	-0.41672975
19	0x3dce8d69	0.100855656
20	0x3f0ae116	0.54249704
21	0xc00e86b8	-2.2269726
22	0xbe95e31b	-0.2927483
23	0xbddb5867	-0.10710221
24	0xbfbd0ba9	-1.4769183
25	0xbc53cb32	-0.0129268635
26	0x3da9fe5e	0.0830047
27	0x3e33c395	0.17555077
28	0xbe8f2e23	-0.27964887
29	0x3ead6886	0.33868808
30	0x3eaabf27	0.33348963
31	0xbe1be5f5	-0.1522444
32	0x3eadf182	0.33973318
33	0x3f0bd191	0.5461665
34	0x3e9246e6	0.28569716
35	0xbe8a9c4f	-0.2707238
36	0x3ed23721	0.41057685
37	0x3eab49db	0.33454785
38	0x3dc99c56	0.09844272
39	0x3e9d1647	0.3068106
40	0x3eaa6e23	0.33287153
41	0x3ead5e9d	0.33861247
42	0xbc359e3b	-0.011085088
43	0x3e8adb68	0.2712052
44	0x3e99a12c	0.30005777
45	0x3ede807a	0.43457395
46	0xbc82d9c2	-0.015972976
47	0xbecb7983	-0.39741144
48	0xbd82d2e7	-0.06387883
49	0x3f257c0f	0.64642423
50	0xbf05106c	-0.5197818
51	0x3ecb915e	0.39759344
52	0x3ec9aca0	0.39389515
53	0xbf1619b3	-0.58632964
54	0xbe4a205b	-0.19738905
55	0xbe614944	-0.22000605
56	0xbd31d8f8	-0.04341981
57	0x3eb7c1e0	0.35890102
58	0x3f2b2bfd	0.66863996
59	0xbe3a58b8	-0.18197906
60	0xbeaf3de3	-0.34226903
61	0x3f473acb	0.77824086
62	0x3e700f59	0.23443355
63	0xbe673f7e	-0.22582814
64	0xbca32a70	-0.019917697
65	0x3e10266e	0.1407716
66	0x3d94f23c	0.07272765
67	0xbe8f1594	-0.2794615
68	0xbe9ed16e	-0.31019157
69	0xbe100e9b	-0.14068072
70	0xbdb437f0	-0.08799732
71	0x3dbd7af4	0.09251967

bias f4 [8]
0	0xbb76555f	-0.0037587506
1	0x3b0b284c	0.0021233736
2	0x3ec7fcdd	0.39060107
3	0x3deca087	0.11554056
4	0x3dc6b9d9	0.097034164
5	0x3d7bf2c5	0.06151082
6	0xbaf82644	-0.0018932302
7	0xbe9f2638	-0.31083846

weight f4 [16, 8, 3, 3]
0	0xbd6c8ea8	-0.057753235
1	0xbeab2161	-0.33423904
2	0xbea10c4f	-0.31454703
3	0xbe005a26	-0.12534389
4	0x3dbe12f5	0.092809595
5	0x3eabd837	0.33563396
6	0x3e059338	0.13044441
7	0x3dd74219	0.10510654
8	0x3c991d75	0.018690804
9	0xbe80f7c2	-0.25189024
10	0xbda4094d	-0.080095865
11	0xbe8673b9	-0.26260164
12	0xbe2dcc25	-0.16972406
13	0x3d3e8a4a	0.0465186
14	0x3e9e640c	0.30935705
15	0x3e4bc8d8	0.19900835
16	0x3ecb62c3	0.39723787
17	0x3d93cfdf	0.07217383
18	0x3e9c4fb2	0.30529553
19	0x3e8814c3	0.2657834
20	0x3ee1502b	0.44006476
21	0x3e35c4fe	0.17750928
22	0xbd8c66b4	-0.068555266
23	0xbec0f638	-0.3768785
24	0xbd780ff7	-0.0605621
25	0xbe7771f7	-0.24164568
26	0xbecc7397	-0.39931938
27	0x3d97388a	0.07383831
28	0xbe25ad28	-0.16179335
29	0xbe6ef14f	-0.2333424
30	0xbdd29cac	-0.10283789
31	0x3e0d4fdf	0.138
32	0x3e0c71a9	0.13715233
33	0x3e234c25	0.15947016
34	0x3e163d94	0.14671928
35	0x3e438335	0.1909302
36	0xbe231fa1	-0.15930034
37	0xbe2c9c42	-0.16856483
38	0xbe53021e	-0.20606276
39	0xbe10d1ea	-0.14142576
40	0x3d9aa801	0.075515755
41	0x3e704eac	0.23467511
42	0x3d9ebb7d	0.07750604
43	0x3dc0d523	0.094156526
44	0x3df5e9ba	0.120074704
45	0xbe0ec32b	-0.13941638
46	0xbef3bfc4	-0.47607243
47	0xbe647bae	-0.22312805
48	0xbf0acb31	-0.54216295
49	0xbe7ff762	-0.24996713
50	0x3c67cc73	0.014147866
51	0xbe95a8be	-0.29230303
52	0xbcaf2d6d	-0.021383965
53	0x3e7d7677	0.24752222
54	0xbc2de838	-0.010614447
55	0xbe6240ea	-0.22095075
56	0xbe2ee0b8	-0.17077911
57	0xbd683f5d	-0.056701053
58	0x3c112a5e	0.008860199
59	0x3df99cd5	0.121881165
60	0x3e22c974	0.15897161
61	0x3e7ccb7b	0.24686997
62	0x3d8cc9ff	0.06874465
63	0xbdb31230	-0.08743703
64	0x3d3c423e	0.04596161
65	0xbd2c6e96	-0.04209765
66	0xbc4e4a90	-0.012591019
67	0xbd673f61	-0.056456927
68	0x3d0bc5ca	0.034124173
69	0xbc8456b8	-0.016154632
70	0x3c890d24	0.016729899
71	0x3d065a0e	0.032800727
72	0xbd0c2824	-0.03421797
73	0x3e077834	0.13229448
74	0x3b80e8fe	0.003934025
75	0xbd326444	-0.043552652
76	0x3dc0371f	0.093855135
77	0xbe32861a	-0.17433968
78	0xbdb9050a	-0.09034164
79	0x3e3636bf	0.17794321
80	0xbda67a2e	-0.08128773
81	0xbe5927be	-0.21206567
82	0x3d8616c1	0.06547309
83	0x3c985193	0.018593585
84	0xbe39ee04	-0.18157202
85	0x3e137127	0.14398633
86	0xbdf501b9	-0.11963219
87	0xbdf0c72f	-0.11756741
88	0xbdcefd9d	-0.10106967
89	0x3ca68ca4	0.020330735
90	0x3f0cbdcc	0.5497711
91	0x3ceb086a	0.028690536
92	0xbea1bfa9	-0.31591538
93	0xbdcfea3f	-0.10152101
94	0x3d788f31	0.060683433
95	0xbe812efa	-0.25231153
96	0xbdcdab59	-0.100424476
97	0x3c699caf	0.014258548
98	0xbeacffb0	-0.33788824
99	0x3ddce8be	0.107865795
100	0x3e090d7d	0.13384052
101	0x3dd79bd0	0.10527766
102	0xbdde0e89	-0.10842616
103	0x3d50a981	0.0509429
104	0x3cd16646	0.025561463
105	0xbc479b8c	-0.012183081
106	0xbcb0c574	-0.021578528
107	0x3e153d0a	0.14574066
108	0xbe4fd882	-0.20297435
109	0x3d191983	0.037377845
110	0x3d400a19	0.04688463
111	0xbe636c76	-0.22209343
112	0xbc55628e	-0.013023986
113	0xbd3bb856	-0.045830093
114	0xbdf162c0	-0.11786413
115	0x3e006545	0.12538631
116	0xbdb98e8c	-0.09060392
117	0x3edf4adb	0.43611798
118	0x3eab63ba	0.33474523
119	0x3cc6934f	0.024240164
120	0x3e4b6ac3	0.19864945
121	0x3e5af290	0.21381593
122	0x3dca7d0f	0.09887134
123	0x3d49bde8	0.049253374
124	0x3e9febdd	0.31234637
125	0x3e8637fe	0.26214594
126	0xbe8a09e6	-0.26960677
127	0x3e10263e	0.14077088
128	0xbd9339ab	-0.07188734
129	0xbd6e1cd1	-0.05813295
130	0x3e5a77a1	0.21334697
131	0x3dd794b7	0.10526412
132	0xbce301d8	-0.02771084
133	0x3e28ab50	0.164716
134	0xbb63f678	-0.0034784358
135	0xbd085e42	-0.033293016
136	0xbda3d45c	-0.07999489
137	0xbd98d029	-0.074615784
138	0xbc919d2c	-0.01777514
139	0x3ceaadbc	0.028647296
140	0x3dc9d6a3	0.09855392
141	0x3d43607e	0.047699444
142	0x3d9358c1	0.07194663
143	0xbd21ec92	-0.03953225
144	0xbdcc394f	-0.09971868
145	0xbed38c09	-0.41317776
146	0xbebbe1c9	-0.36695698
147	0x3e369435	0.17829974
148	0x3eb29bb8	0.3488443
149	0x3e09ef15	0.13470109
150	0xbdf83e6c	-0.12121281
151	0x3e15870c	0.14602298
152	0xbce9af87	-0.02852608
153	0xbddcc801	-0.10780335
154	0xbe791039	-0.24322595
155	0xbe9829a6	-0.29719275
156	0x3e64a1af	0.22327302
157	0x3e0cba15	0.1374286
158	0x3e8eaa50	0.27864313
159	0x3dc83624	0.097759515
160	0x3d89ad30	0.06722486
161	0xbd91520d	-0.07095728
162	0x3c4f86d9	0.0126664275
163	0xbe637e7f	-0.22216223
164	0x3eb5874c	0.35454786
165	0xbdd7f9ea	-0.10545714
166	0xbe4693a5	-0.1939226
167	0xbe50fcf6	-0.20408997
168	0x3d9fc174	0.0780057
169	0x3e769c1b	0.24082987
170	0x3b368835	0.0027852182
171	0xbe28ee1d	-0.16497083
172	0xbe27361e	-0.16329238
173	0xbe456e2a	-0.19280306
174	0x3e033b63	0.12815623
175	0x3e421cc1	0.18956281
176	0x3d8ec174	0.06970492
177	0xbd64d620	-0.055868268
178	0xbda43d0c	-0.08019456
179	0x3d5e83d4	0.05432494
180	0x3d2d63e7	0.042331602
181	0xbe5187a2	-0.20461896
182	0xbeb3d291	-0.35121587
183	0x3e12e383	0.14344601
184	0x3e7608ce	0.24026796
185	0x3d8ba255	0.06818072
186	0xbe1e3f59	-0.15453853
187	0xbddc277e	-0.1074972
188	0x3e4a8d9b	0.1978058
189	0xbcc4a179	-0.024002777
190	0x3e3198e4	0.1734348
191	0xbe7afbc4	-0.24510103
192	0xbd8b4a48	-0.068012774
193	0x3e6ef1f4	0.23334485
194	0x3dd07485	0.10178474
195	0xbe23ab57	-0.1598333
196	0xbe688c57	-0.22709785
197	0x3e3af259	0.18256511
198	0xbe3b38ec	-0.18283433
199	0xbe108127	-0.14111768
200	0xbdef810c	-0.116945356
201	0x3c8d2df7	0.017233832
202	0x3e51fae2	0.2050586
203	0x3ea82f05	0.32848373
204	0x3dace00a	0.084411696
205	0x3d19dba1	0.03756297
206	0x3e8cd8e9	0.2750924
207	0x3db7fd43	0.08983853
208	0x3c556378	0.0130242035
209	0x3dc2bf59	0.09509153
210	0xbd27bb6e	-0.04095023
211	0xbda1a40f	-0.0789262
212	0x3d6e2c7a	0.058147885
213	0x3ce49e8c	0.027907632
214	0xbcbc25ac	-0.022967182
215	0x3d172d02	0.036908157
216	0x3d161d8f	0.036649283
217	0x3e254ca4	0.16142517
218	0x3d6c4f66	0.057692908
219	0x3dc11f73	0.094298266
220	0xbe7dbd76	-0.24779305
221	0xbdc495a3	-0.095988534
222	0x3d8b8beb	0.068137966
223	0xbe1e64b1	-0.15468098
224	0xbd85d256	-0.06534259
225	0xbdfd3a23	-0.12364604
226	0xbdc1e403	-0.09467318
227	0x3cb02eab	0.021506628
228	0xbe29998a	-0.16562477
229	0xbe019b21	-0.12656833
230	0xbdc7aea5	-0.09750108
231	0xbe35b341	-0.17744161
232	0xba319285	-0.0006773847
233	0xbd5646a7	-0.052313473
234	0x3e9dd048	0.30822968
235	0xbd973fe9	-0.07385237
236	0xbe3903c9	-0.1806785
237	0xbd99f36b	-0.075171314
238	0xbeab5d1f	-0.33469483
239	0xbe6306fe	-0.22170636
240	0xbc20a482	-0.009804847
241	0xbd2a187d	-0.04152726
242	0x3e0ab547	0.13545714
243	0x3de28a1f	0.11061501
244	0xbd72df46	-0.05929496
245	0x3d966dde	0.07345174
246	0xbcbd00bb	-0.023071637
247	0x3e3f0c2e	0.1865699
248	0xbd35df34	-0.044402316
249	0xbe413d08	-0.18870938
250	0x3df7189e	0.12065242
251	0x3df85a7c	0.121266335
252	0xbddd15f3	-0.10795202
253	0x3d2750f6	0.040848695
254	0x3e04fb5a	0.12986508
255	0x3de963f3	0.11396017

bias f4 [16]
0	0xbd2c2661	-0.04202879
1	0x3cbaa1d2	0.02278224
2	0x3c62acad	0.013835114
3	0x3ce6b886	0.02816416
4	0xbdcafa23	-0.09910991
5	0x3e12dc82	0.1434193
6	0xbda8c39c	-0.082404345
7	0x3d0a7d0c	0.03381066
8	0x3c82faaf	0.015988676
9	0x3ba43ef8	0.0050123893
10	0x3d9fac0e	0.07796489
11	0xbd8b699a	-0.06807251
12	0xbe8dac67	-0.27670595
13	0x3e00d473	0.12581043
14	0xbdda90d8	-0.10672158
15	0xbe115936	-0.14194188

weight f4 [10, 784]
0	0x3d0e753c	0.034779772
1	0x3c94b591	0.018152984
2	0x388af026	6.625084e-05
3	0xbc7903cb	-0.015198658
4	0x3cd586f7	0.026065333
5	0x3d920275	0.07129375
6	0xbd7a6939	-0.061135504
7	0xbba64363	-0.005073951
8	0x3d4b023a	0.04956267
9	0xbdd6d924	-0.10490635
10	0xbd3a97b2	-0.045554824
11	0x3d818851	0.063248284
12	0x3cb2c0fd	0.02182054
13	0xbd50dd3d	-0.05099224
14	0xbd01939d	-0.031634916
15	0xbc71e0d0	-0.014763072
16	0xbccca893	-0.024982726
17	0x3d3664be	0.04452967
18	0x3e01f8a2	0.12692502
19	0x3d24ce1c	0.040235624
20	0xbb8f0e25	-0.0043657
21	0x3d2fc6a9	0.042914066
22	0xbe071dbc	-0.13194937
23	0xbd81dd02	-0.06340982
24	0x3c263734	0.010144997
25	0x3d62054b	0.05518083
26	0xbd4f6dd3	-0.050641846
27	0xbdcdf6a8	-0.100568116
28	0xbda0d2ee	-0.07852732
29	0xbcabc7be	-0.020969268
30	0x3c86f618	0.016474769
31	0xbe08d481	-0.13362314
32	0xbd987c06	-0.074455306
33	0x3d20904e	0.03920012
34	0xbdf01985	-0.117236175
35	0xbca186dc	-0.019717626
36	0xbcfa1c05	-0.030530939
37	0x3d4148a6	0.047188424
38	0xbccc893b	-0.02496778
39	0x3df0596f	0.11735808
40	0x3db0f038	0.08639568
41	0xbdd36b9f	-0.103232615
42	0xbdb60b99	-0.08888931
43	0x3dafcb7c	0.085837334
44	0x3c9d59e6	0.019207906
45	0xbdd7f358	-0.10544461
46	0x3d7c78b8	0.061638564
47	0x3e350f5c	0.1768164
48	0x3db4ccd3	0.088281296
49	0x3bde548e	0.006784982
50	0xbc934755	-0.01797835
51	0x3dbca27a	0.092106774
52	0xbe2ae50c	-0.16688937
53	0xbc0fb1d6	-0.008770427
54	0x3d8f6f65	0.07003669
55	0x3de0107b	0.109406434
56	0x3e215a45	0.15757091
57	0xbcbe2c5b	-0.02321451
58	0xbd700087	-0.058594253
59	0x3dcabedc	0.09899685
60	0xbe375d09	-0.17906584
61	0xbc80ddfc	-0.01573085
62	0x3c373fe5	0.011184667
63	0xbbf834ec	-0.007574668
64	0x3c4b11e7	0.012394405
65	0x3d3e6488	0.046482593
66	0xbd11823f	-0.035524603
67	0xbdeb1a9c	-0.11479685
68	0xbcbd2e6a	-0.023093421
69	0xbea32fd6	-0.31872433
70	0xbe0eb1ec	-0.1393506
71	0xbd3c5778	-0.045981854
72	0x3dc1f301	0.094701774
73	0xbd531b74	-0.051539853
74	0x3d6544a9	0.055973683
75	0xbc822258	-0.015885517
76	0xbe050dd9	-0.12993564
77	0xbdcbccae	-0.09951149
78	0xbb0592bc	-0.002038165
79	0x3cbdd7aa	0.023174126
80	0xbd21d0f0	-0.0395059
81	0x3d055a71	0.032556955
82	0xbbfbd883	-0.0076857223
83	0x3c250424	0.010071788
84	0xbd98a263	-0.07452848
85	0x3c04e714	0.008111734
86	0xbcfacd7f	-0.030615566
87	0xbc96c346	-0.01840366
88	0x3d24a390	0.040195048
89	0xbe012860	-0.12613058
90	0x3ddadfbc	0.10687205
91	0xbd79fcb0	-0.061031997
92	0x3d805652	0.06266464
93	0x3ca32169	0.019913392
94	0x3e36555e	0.17806002
95	0x3e174fc0	0.14776516
96	0xbcff8ade	-0.031194147
97	0x3d036ade	0.03208434
98	0x3d0e79f2	0.034784265
99	0x3d88b210	0.06674588
100	0x3c9dfe0e	0.019286182
101	0x3cc3654f	0.023852019
102	0x3b3df581	0.0028985443
103	0x3e01a52c	0.12660664
104	0x3c7cc44a	0.015427658
105	0x3dedce29	0.116115876
106	0x3da702ae	0.08154808
107	0x3e193c09	0.14964308
108	0x3d07a977	0.0331206
109	0xbb744c43	-0.00372769
110	0xbdbe82e5	-0.0930231
111	0xbe1ed03f	-0.15509127
112	0xbe0040eb	-0.12524764
113	0x3e3adecd	0.18249054
114	0x3e0bc2c1	0.13648511
115	0x3d9110de	0.07083295
116	0xbde4c67b	-0.1117067
117	0x3cbac96f	0.02280113
118	0xbc960c62	-0.018316451
119	0x3d0a35b7	0.033742633
120	0xbd4cc414	-0.049991682
121	0x3d3a19f0	0.045434892
122	0x3da26478	0.07929319
123	0xbe6d21b5	-0.2315739
124	0xbe424d82	-0.1897488
125	0xbc4ec28d	-0.012619627
126	0xbeab3881	-0.33441547
127	0x3cda79a4	0.02666933
128	0x3c8db7e0	0.017299592
129	0x3db1febe	0.08691166
130	0xbde54e8f	-0.111966245
131	0xbe12adb8	-0.14324081
132	0xbde74d20	-0.11294007
133	0xbd8891a5	-0.066684045
134	0xbc89c2a8	-0.016816452
135	0x3d0fdced	0.0351228
136	0x3d6ffcc0	0.05859065
137	0xbc88123f	-0.016610263
138	0x3d9e23a1	0.077216394
139	0x3e0bb311	0.13642527
140	0xbe0859df	-0.13315533
141	0xbe593a38	-0.21213615
142	0xbd9d029a	-0.07666512
143	0xbb814639	-0.003945139
144	0xbd2123ad	-0.039340664
145	0x3d622d69	0.055219088
146	0xbdb1f5f6	-0.086894915
147	0xbd14527c	-0.036211476
148	0xbc25ee04	-0.010127548
149	0x3e0b8ccd	0.1362793
150	0xbd02be04	-0.031919494
151	0xbd9b61e0	-0.075870275
152	0xbda7265a	-0.08161612
153	0x3d9a5a64	0.07536772
154	0x3daf137f	0.085486405
155	0x3e2a3981	0.16623498
156	0x3cc7da33	0.024396038
157	0xbc820602	-0.015872005
158	0xbdb091ae	-0.08621536
159	0x3dea6449	0.11444909
160	0xbdb366a8	-0.087598145
161	0xbd50bb1b	-0.050959688
162	0xbb91d2e8	-0.004450191
163	0x3e0c1491	0.1367972
164	0xbd64b941	-0.055840734
165	0xbd349d30	-0.04409522
166	0xbdf3dcfe	-0.11907385
167	0xbc83bc95	-0.016081134
168	0x3dc60abd	0.09670017
169	0x3d82affc	0.063812226
170	0x3d841af0	0.064504504
171	0x3bdc43e6	0.0067219613
172	0xbd06061b	-0.032720666
173	0xbdb584a4	-0.0886319
174	0x3cfffc14	0.03124813
175	0xbe32fe4f	-0.17479824
176	0xbd5a2632	-0.053259082
177	0x3cadd1a0	0.021218121
178	0xbd0dee5c	-0.034651145
179	0x3dfe0973	0.12404146
180	0x3d02925f	0.03187787
181	0xbc946dbf	-0.018118737
182	0xbdd323ce	-0.103095636
183	0xbcdef578	-0.027216658
184	0xbb9237d6	-0.0044622226
185	0x3d295316	0.041339003
186	0xbdeac50f	-0.11463367
187	0xbd5b2e53	-0.053510975
188	0x3d47d96c	0.048791334
189	0xbd864417	-0.06555956
190	0xba8274d3	-0.0009953029
191	0xbc91ec70	-0.017812937
192	0x3ce11a73	0.027478432
193	0x3bf4dfc7	0.0074729654
194	0x3e093fec	0.1340329
195	0x3d0e86ec	0.03479664
196	0xbe04efbd	-0.12982078
197	0xbe8746cf	-0.2642121
198	0xbd49ff11	-0.049315516
199	0xbe140878	-0.14456356
200	0x3cc8c647	0.024508609
201	0xbd133252	-0.03593666
202	0xbd77a6a9	-0.060461674
203	0xbd7a921e	-0.061174504
204	0x3df96b06	0.12178616
205	0xbd46b83c	-0.048515543
206	0xbd8004b8	-0.062509
207	0x3cc0dc1f	0.023542462
208	0x3cd397a4	0.025829144
209	0x3d411163	0.047135722
210	0x3d1e508c	0.038651034
211	0x3da371e3	0.079807065
212	0xbd353a50	-0.044245064
213	0xbdba2a22	-0.090900674
214	0xbba678ce	-0.005080319
215	0x3dbc187a	0.09184356
216	0xbcb31811	-0.021862062
217	0xbc91c341	-0.0177933
218	0x3dfe43f1	0.124153025
219	0x3d23354d	0.039845753
220	0x3ae88e56	0.0017742615
221	0x3c3574aa	0.011075178
222	0xbcf0a25c	-0.029374294
223	0x3d593fa3	0.053039204
224	0xbe7e0520	-0.24806643
225	0x3d3a577a	0.04549358
226	0x3d8b3eb3	0.06799068
227	0x3ca1d8ab	0.019756636
228	0x3a8703a7	0.0010300771
229	0xbc024813	-0.007951754
230	0xbe0026bc	-0.12514776
231	0xbe24a034	-0.16076738
232	0xbcf30ee7	-0.029670192
233	0x3da103de	0.07862066
234	0xbd400b5f	-0.046885844
235	0xbd961adc	-0.07329342
236	0xbca23bad	-0.019803846
237	0xbd9d40fb	-0.0767841
238	0x3dfb0310	0.122564435
239	0xbdc0e02d	-0.09417758
240	0x3c64407a	0.013931388
241	0xbd288cf6	-0.041150056
242	0xbd7a6612	-0.061132498
243	0x3d80df51	0.06292594
244	0xbd71589a	-0.058922388
245	0x3dcc6d71	0.09981812
246	0xbe79885e	-0.24368426
247	0xbd89c271	-0.0672654
248	0xbda58119	-0.08081264
249	0x3d062ad9	0.032755706
250	0xbb2604b8	-0.0025332402
251	0x3c5bd242	0.013416829
252	0xbe0a5300	-0.13508224
253	0x3e64fccb	0.22362058
254	0x3da6715f	0.081270926
255	0x3caea685	0.021319637

bias f4 [10]
0	0x3c94029e	0.018067654
1	0xbdba6083	-0.091004394
2	0x3e03e1b5	0.12879069
3	0xbc49d58a	-0.012318978
4	0xbe2bcaa1	-0.16776516
5	0xbc9d473d	-0.019199008
6	0xbbe3f06d	-0.006956151
7	0x3d72acd5	0.059246857
8	0xbcbc24ef	-0.02296683
9	0x3d0c0465	0.03418388
